…
2022-05-13 08:41:58.207403: I tensorflow/core/common_runtime/gpu/gpu_device.cc:1525] Created device /device:GPU:0 with 38183 MB memory:  -> device: 0, name: A100-SXM4-40GB, pci bus id: 0000:4e:00.0, compute capability: 8.0
2022-05-13 08:41:59.369989: I tensorflow/core/common_runtime/gpu/gpu_device.cc:1525] Created device /job:localhost/replica:0/task:0/device:GPU:0 with 38183 MB memory:  -> device: 0, name: A100-SXM4-40GB, pci bus id: 0000:4e:00.0, compute capability: 8.0
Found GPU at: /device:GPU:0
Model: "sequential_1"
_________________________________________________________________
 Layer (type)                Output Shape              Param #   
=================================================================
 conv2d (Conv2D)             (None, 5, 5, 256)         2560      
                                                                 
 batch_normalization_4 (Batc  (None, 5, 5, 256)        1024      
 hNormalization)                                                 
                                                                 
 conv2d_1 (Conv2D)           (None, 5, 5, 256)         590080    
                                                                 
 batch_normalization_5 (Batc  (None, 5, 5, 256)        1024      
 hNormalization)                                                 
                                                                 
 conv2d_2 (Conv2D)           (None, 5, 5, 256)         590080    
                                                                 
 batch_normalization_6 (Batc  (None, 5, 5, 256)        1024      
 hNormalization)                                                 
                                                                 
 conv2d_3 (Conv2D)           (None, 5, 5, 256)         590080    
                                                                 
 batch_normalization_7 (Batc  (None, 5, 5, 256)        1024      
 hNormalization)                                                 
                                                                 
 flatten_1 (Flatten)         (None, 6400)              0         
                                                                 
 dense_2 (Dense)             (None, 128)               819328    
                                                                 
 dense_3 (Dense)             (None, 3)                 387       
                                                                 
=================================================================
Total params: 2,596,611
Trainable params: 2,594,563
Non-trainable params: 2,048
_________________________________________________________________
2022-05-13 08:42:01.863528: I tensorflow/stream_executor/cuda/cuda_dnn.cc:379] Loaded cuDNN version 8303
2022-05-13 08:42:02.717970: I tensorflow/core/platform/default/subprocess.cc:304] Start cannot spawn child process: No such file or directory
…
